actor_best_model_128_128.pth (torch_old, 86563 bytes, 6 tensors)

fc1.weight f4 [128, 33]
0.11642887 -0.09888301 -0.059285697 0.23151192 0.04304643 -0.014704221 0.14509195 0.103143714
0.06269738 0.0037761633 -0.017957555 -0.0239397 0.08247076 -0.14778787 -0.014629498 0.012556531
-0.32639512 0.10948474 -0.1052341 -0.46151084 -0.0023850054 -0.02396174 0.035122167 0.14202382
0.0458941 0.04912795 0.21111281 -0.1192504 -0.103412494 0.066015996 0.066229455 0.011844657
0.87976605 -0.047081348 0.034679927 -0.29066658 -0.13116945 -0.108698644 -0.2768046 -0.14820422
0.16537587 0.32607722 -0.010811373 0.027239513 0.09132406 -0.009564422 0.18845403 -0.031299066
-0.122833245 -0.0032914174 -0.22343373 0.19026473 -0.066013075 -0.024218142 0.09152916 -0.07514351
0.02290677 0.03426778 -0.22314523 -0.037794814 0.01351387 0.2497581 -0.084086195 0.043232225
0.061748423 1.2546177 0.07210997 0.08348312 -0.060660608 -0.30472332 0.027647281 -0.40704897
-0.24008739 -0.023599602 0.04099188 -0.0191172 0.054135326 0.12151657 0.07166932 0.10549033
-0.2764824 0.11750811 -0.412221 0.3266154 -0.47329888 -0.6152796 0.051602747 0.036954556
-0.02430105 0.1623297 -0.06379123 -0.0070151566 -0.13429238 -0.045563348 0.015158746 0.0039870366
0.00067705644 -0.081296414 0.32521552 -0.07685505 -0.056251016 0.07166481 0.032418597 -0.09724568
-0.17141058 -0.14872274 -0.08916028 -0.15113226 -0.07979833 0.022440065 -0.1323973 -0.038947467
0.10586362 0.17089473 0.017842697 0.13501492 0.6428368 -0.13854098 -0.5478202 -0.102206826
0.09056228 -0.0675974 -0.015798206 0.05459268 -0.03090134 -0.13811219 -0.15283 -0.08636106
0.07260475 0.1970784 0.043843754 0.12922591 0.26568604 -0.03970118 -0.075584784 0.020970464
-0.1773658 -0.24858797 -0.2000929 0.034565758 -0.06934125 -0.060788687 0.012200743 0.014611787
-0.016180096 0.19363666 -0.060322776 0.0459843 0.31865925 -0.42307547 -0.1564177 0.14994049
-0.08443391 0.0050468417 0.13254192 0.0050510946 0.031033054 0.033010107 -0.25386152 -0.05603854
0.0766736 0.06207549 0.06911224 0.071876414 -0.83221215 0.037042312 -0.10890369 -0.14484498
0.2895376 -0.0077033406 -0.030016791 -0.27041996 -0.095559694 -0.009439274 -0.20468377 0.07317117
-0.040993962 -0.029475804 -0.019900246 0.038652018 -0.1782075 0.00022138582 -0.09432838 0.25995567
-0.18865205 -0.0034404644 0.12704775 -0.10297937 0.24033064 0.06715137 -0.08947023 0.08850272
-0.06939908 -0.039860137 -0.03637312 0.033937097 -0.06281947 -0.6208858 -0.040503353 -0.041946895
-0.29240227 0.05777211 -0.19566251 0.23912035 -0.27141646 -0.13518377 -0.07521887 0.02965185
0.01736138 0.0127614625 -0.074727975 0.14766796 0.06024583 0.06984967 0.091645084 -0.09191541
0.1180619 0.15145393 -0.07427567 -0.022517662 -0.021056958 0.048856474 0.0018808343 0.009610598
0.0061989506 0.0710534 -0.1348761 -0.01661095 -0.014280872 0.0023340285 -1.2706428 0.09079654
0.039303735 -0.10099204 0.19633803 0.12674704 0.096629076 -0.25947878 -0.016898124 -0.13811335
-0.0066138348 0.07907119 -0.036341373 0.009375542 0.08971175 0.085497305 0.117122106 -0.09214243
-0.33112946 -0.042013895 -0.094335556 0.043243058 -0.13926955 -0.122880496 0.00088631496 -0.005683764
00000000: 4272 ee3d 2d83 cabd 8fd5 72bd 7611 6d3e
00000010: 7451 303d f9e9 70bc fc92 143e 033d d33d
00000020: 7c67 803d 8279 773b b91b 93bc 311d c4bc
00000030: 6ee6 a83d b455 17be 90b0 6fbc e8b9 4d3c
00000040: 431d a7be 8939 e03d fa84 d7bd 264b ecbe
00000050: c04d 1cbb 694b c4bc 43dc 0f3d b16e 113e
00000060: 74fb 3b3d 643a 493d f52d 583e 8e39 f4bd
00000070: eec9 d3bd 6533 873d 4fa3 873d 1810 423c
00000080: 5938 613f 5fd8 40bd 8a0c 0e3d 40d2 94be
00000090: 4951 06be 659d debd 55b9 8dbe d9c2 17be
000000a0: 4b58 293e 98f3 a63e 2f22 31bc 6625 df3c
000000b0: 1c08 bb3d 18b4 1cbc 18fa 403e 7333 00bd
000000c0: ff8f fbbd d2b4 57bb d0cb 64be c2d4 423e
000000d0: dd31 87bd 2065 c6bc a473 bb3d d7e4 99bd
000000e0: fba6 bb3c 5f5c 0c3d 2f80 64be bcce 1abd
000000f0: 4769 5d3c 96c0 7f3e 6235 acbd 4614 313d
00000100: eaeb 7c3d 5097 a03f 64ae 933d 33f9 aa3d
00000110: 4277 78bd b204 9cbe 8d7c e23c b968 d0be
00000120: 78d9 75be f453 c1bc 1ae7 273d ad9b 9cbc
00000130: 01bd 5d3d aedd f83d 5dc7 923d 500b d83d
00000140: 1a8f 8dbe 18a8 f03d a20e d3be 223a a73e
00000150: 3b54 f2be f782 1dbf 675d 533d a95d 173d
00000160: ff12 c7bc c239 263e faa4 82bd 66df e5bb
00000170: f183 09be a2a0 3abd 645c 783c b0a5 823b
00000180: 7d7c 313a bc7e a6bd a682 a63e 2e66 9dbd
00000190: 7767 66bd 00c5 923d 5dc9 043d be28 c7bd
000001a0: 4186 2fbe c64a 18be aa99 b6bd 6ac2 1abe
000001b0: 4f6d a3bd 3ad4 b73c 2893 07be 6187 1fbd
000001c0: 07cf d83d 07ff 2e3e d92a 923c 5a41 0a3e
000001d0: f490 243f b0dd 0dbe f23d 0cbf d051 d1bd
000001e0: b778 b93d 8170 8abd 3d6b 81bc 939c 5f3d
000001f0: cf24 fdbc 486d 0dbe 787f 1cbe 11de b0bd
00000200: cdb1 943d ecce 493e 8295 333d cc53 043e
00000210: 0008 883e b49d 22bd 32cc 9abd 40ca ab3c
00000220: 619f 35be d88d 7ebe 27e5 4cbe d394 0d3d
00000230: c902 8ebd 8ffd 78bd a0e5 473c 4766 6f3c
00000240: 1f8c 84bc b048 463e 0415 77bd 095a 3c3d
00000250: 4e27 a33e 599d d8be f62b 20be 008a 193e
00000260: b0eb acbd fa5f a53b 12b9 073e a783 a53b
00000270: 0839 fe3c 9b35 073d 23fa 81be ab88 65bd
00000280: 0c07 9d3d de42 7e3d b88a 8d3d f133 933d
00000290: db0b 55bf aeb9 173d e608 dfbd 3e52 14be
000002a0: 463e 943e 4e6c fcbb c6e5 f5bc 7c74 8abe
000002b0: cdb4 c3bd 2fa7 1abc 9f98 51be c4da 953d
000002c0: 49e9 27bd 3e77 f1bc d705 a3bc 9451 1e3d
000002d0: 077c 36be ce23 6839 3d2f c1bd e918 853e
000002e0: 012e 41be 6a79 61bb ce18 023e d9e6 d2bd
000002f0: 3c19 763e a886 893d 2b3c b7bd ea40 b53d
00000300: 1b21 8ebd 6244 23bd fbfb 14bd a001 0b3d
00000310: 7fa7 80bd 5ff2 1ebf d8e6 25bd 82d0 2bbd
00000320: c0b5 95be 73a2 6c3d c15b 48be f7db 743e
00000330: 19f7 8abe 9d6d 0abe 5a0c 9abd 70e8 f23c
00000340: 7439 8e3c 7415 513c fb0a 99bd 4536 173e
00000350: 55c4 763d 580d 8f3d 6bb0 bb3d 253e bcbd
00000360: 70ca f13d bd16 1b3e d81d 98bd f676 b8bc
00000370: a47f acbc ba1d 483d 5486 f63a c575 1d3c
00000380: 9120 cb3b 7284 913d f61c 0abe b013 88bc
00000390: 52fa 69bc 80f6 183b 6ca4 a2bf 89f3 b93d
000003a0: f4fc 203d ead4 cebd d60c 493e fac9 013e
000003b0: 77e5 c53d 67da 84be ef6d 8abc 966d 0dbe
000003c0: deb8 d8bb 13f0 a13d b1da 14bd e09b 193c
000003d0: cbba b73d 3619 af3d b7dd ef3d 2cb5 bcbd
000003e0: cd89 a9be c316 2cbd 0033 c1bd a21f 313d
000003f0: ad9c 0ebe c5a8 fbbd 9757 683a de3e babb

fc1.bias f4 [128]
-0.0077783945 -0.016852332 0.14393061 0.079340935 0.10074279 -0.032196652 -0.06609387 0.1582874
-0.15638429 0.17522117 -0.0662154 -0.17308941 0.065685004 0.23982161 0.15416014 0.057529412
0.13175464 0.017048685 -0.1309502 0.10269709 -0.13188435 -0.12480667 -0.16517486 -0.031866986
0.056500774 0.17421347 0.07441935 0.027913922 0.14795947 0.24472931 0.026948852 -0.26224825
0.005138589 0.15852986 -0.18690836 0.12875016 0.01746483 0.12102565 0.09972776 -0.14504899
-0.007086387 -0.01610792 0.05028822 0.25318855 0.02960312 -0.031989794 0.067896806 0.034232415
0.064259596 0.26794022 -0.08548912 -0.21208692 0.30495134 0.119418815 0.21081302 0.07742871
0.0703485 0.06981599 -0.03073715 -0.117027946 -0.07094751 -0.14022627 0.012224703 -0.13757806
0.036655378 0.3003195 -0.03209604 0.16350624 0.01119134 -0.17361498 -0.16014042 -0.053483486
-0.12200087 0.34765857 -0.13403274 0.027785616 -0.04203359 -0.15742896 0.027733114 -0.03798286
-0.027467499 -0.11138581 0.20148844 0.15272163 0.044389337 -0.03549856 -0.11577581 -0.21215515
-0.036051884 0.043942615 0.1301413 -0.26800692 -0.030193107 0.08465897 -0.24539003 -0.19130225
-0.10217673 0.0826185 0.018255012 -0.090205595 0.16141726 -0.11666085 0.07782577 -0.09150424
-0.24051207 0.1841253 -0.27821228 0.07915835 0.28803998 0.07003465 0.30425486 0.043450482
-0.25472155 0.08374426 -0.13838118 -0.030521432 -0.13324843 -0.12220072 0.35864642 -0.20362431
0.15483277 -0.11548414 -0.040388912 0.013981867 0.020714613 0.09169472 0.12652713 -0.03332493
00000000: e7e1 febb e70d 8abc 8c62 133e 807d a23d
00000010: 3c52 ce3d a3e0 03bd 395c 87bd 1816 223e
00000020: 3423 20be 2e6d 333e f19b 87bd 5a3e 31be
00000030: dc85 863d cc93 753e 28dc 1d3e f6a3 6b3d
00000040: b0ea 063e afa9 8b3c cf17 06be da52 d23d
00000050: b10c 07be a49a ffbd 9923 29be f586 02bd
00000060: 5b6d 673d 0465 323e 2c69 983d bdab e43c
00000070: b082 173e 529a 7a3e d7c3 dc3c 6745 86be
00000080: 9c61 a83b a755 223e e864 3fbe 15d7 033e
00000090: 6712 8f3c 4cdc f73d 113e cc3d b987 14be
000000a0: ec34 e8bb c2f4 83bc 05fb 4d3d eea1 813e
000000b0: 3e82 f23c bb07 03bd 7b0d 8b3d 4a37 0c3d
000000c0: 899a 833d 762f 893e eb14 afbd 502d 59be
000000d0: 9522 9c3e da91 f43d 5edf 573e f292 9e3d
000000e0: e012 903d b0fb 8e3d 7acc fbbc 59ac efbd
000000f0: ee4c 91bd 7a97 0fbe 1f4a 483c 43e1 0cbe
00000100: f323 163d 7ac3 993e 2377 03bd 2e6e 273e
00000110: e25b 373c 20c8 31be dafb 23be 8011 5bbd
00000120: 98db f9bd 4e00 b23e e13f 09be a99e e33c
00000130: 6a2b 2cbd 0f35 21be 8e30 e33c ea93 1bbd
00000140: 8503 e1bc 3e1e e4bd fc52 4e3e 0f63 1c3e
00000150: 98d1 353d f066 11bd de1b edbd 333f 59be
00000160: 24ab 13bd 2cfd 333d c343 053e 3438 89be
00000170: 8957 f7bc af61 ad3d 8647 7bbe bde4 43be
00000180: 0942 d1bd e333 a93d 898b 953c b6bd b8bd
00000190: 914a 253e e2eb eebd 1e63 9f3d 9366 bbbd
000001a0: cc48 76be 588b 3c3e d771 8ebe c61d a23d
000001b0: fa79 933e 546e 8f3d 4bc7 9b3e 22f9 313d
000001c0: dd6a 82be 1c82 ab3d ccb3 0dbe 1508 fabc
000001d0: 4772 08be 5f44 fabd 81a0 b73e e482 50be
000001e0: 7b8c 1e3e f382 ecbd d86e 25bd 3314 653c
000001f0: b1b1 a93c 71ca bb3d 5490 013e b97f 08bd

fc2.weight f4 [128, 128]
-0.22601704 -0.15395458 0.16717094 -0.007847678 0.002781811 -0.01680634 -0.45733675 -0.36080286
0.006307618 0.1154778 0.1334374 -0.3301805 -0.18539427 0.20359677 0.0014215079 -0.36389875
0.12798135 0.26673216 -0.6730068 -0.003291014 -0.009915694 -0.18407875 0.084364526 -0.12618323
0.24847819 -0.31105363 -0.18498887 -0.05343552 -0.14250717 0.0052689514 -0.040778585 -0.26799488
-0.14207602 0.16059548 0.021296283 -0.15409997 0.10760349 0.025197575 -0.13189784 -0.13081655
0.08497518 0.2842441 -0.0065725083 -0.18034275 0.2454073 0.008450919 0.0543266 -0.1084549
-0.042010605 -0.17258833 0.0050890893 0.08056009 -0.10834632 0.060779776 -0.011170281 0.0049091047
0.18395638 0.019444002 0.10191849 0.34015167 0.25015077 -0.075901724 0.055829603 0.21113244
-0.10090045 -0.024411721 -0.088170685 0.124280535 -0.18683645 0.06561376 0.36266822 -0.04065276
0.25872862 -0.31258348 0.15287259 -0.13456088 -0.0051145786 0.3131943 0.19244461 -0.0300694
0.30121738 0.15395844 -0.21061487 0.1389706 0.059379015 0.21460061 0.017072238 0.048962537
-0.12808514 -0.058674764 -0.029749176 0.022398133 -0.017709304 -0.07272442 0.14386208 0.047316346
-0.14003702 -0.014647051 0.0044648647 -0.14547071 0.051949907 0.18839425 -0.027022101 -0.04394738
-0.27951664 -0.15512133 0.10353992 -0.3616087 -0.08482256 0.07142713 -0.027155837 -0.4852585
-0.07203775 -0.050930407 -0.23622352 8.5120286e-05 0.049708385 -0.19151571 0.0034161727 0.0022633378
-0.1851696 -0.018717729 0.18827644 0.1065946 -0.55408394 0.02134478 -0.1410961 0.25653788
-0.05288036 -0.016448578 0.16439107 -0.33000174 0.07166759 -0.17934403 -0.020916995 0.4748819
0.2537811 0.11122076 -0.3138696 -0.2520295 0.22989954 -0.07814564 -0.090114236 -0.13830477
-0.093503766 0.0074193696 0.3569114 -0.06256557 -0.24655767 0.08817204 -0.3352772 0.07669993
0.12635821 0.1107123 0.3803052 0.39981163 0.2307965 -0.020341402 0.0337503 0.029875966
0.08001211 -0.1918716 0.013161195 0.06732466 0.13148883 -0.014404819 0.14333543 0.29269662
0.18003151 -0.42798772 -0.09467264 -0.056319382 0.07284954 0.19403677 -0.07143629 -0.13095115
-0.5529857 -0.23653054 -0.1883147 -0.013780272 0.16885187 -0.11308919 -0.110652134 0.12150636
-0.1490586 0.2649508 -0.04379724 0.13085246 -0.45764172 0.00042668125 0.10011399 0.10061074
-0.09250494 0.10051598 0.11257919 0.2455508 0.26016212 -0.12310756 0.323962 -0.12865305
-0.691388 -0.3127381 0.51451856 -0.009631569 0.3685953 -0.1195986 -0.094949044 -0.27862278
-0.008178679 0.07453377 0.055711728 -0.25256193 0.026614707 -0.21303624 0.25428617 0.13789469
0.13766727 0.22598861 -0.07062434 -0.47840527 -0.08684041 -0.3979451 -0.28671357 -0.44344226
-0.3230626 0.007878084 0.01285874 0.24620458 0.0113336425 0.030741924 -0.5461079 -0.31386074
-0.41055584 -0.0053173066 -0.23453143 0.018267278 -0.0065787574 -0.29600206 -0.12005217 -0.015443372
0.12574343 -0.30159333 0.7439041 -0.099340424 -0.049072973 0.26253015 -0.016146941 -0.17338556
0.022004308 0.16570303 0.044737604 0.0584267 0.047225263 -0.07623456 -0.17206293 -0.31650665
00000000: 0371 67be 45a6 1dbe dc2e 2b3e 8c93 00bc
00000010: 0b4f 363b 73ad 89bc 0b28 eabe 27bb b8be
00000020: 23b0 ce3b a07f ec3d d0a3 083e 6b0d a9be
00000030: ffd7 3dbe ac7b 503e e451 ba3a f050 babe
00000040: 8b0d 033e 1e91 883e 2c4a 2cbf 0eae 57bb
00000050: 6f75 22bc 247f 3cbe 4fc7 ac3d 2d36 01be
00000060: 1171 7e3e 6c42 9fbe b96d 3dbe 34df 5abd
00000070: 66ed 11be 2ba7 ac3b 7207 27bd a036 89be
00000080: 607c 11be 2473 243e 8b75 ae3c 62cc 1dbe
00000090: 385f dc3d 256b ce3c 3a10 07be c6f4 05be
000000a0: 7807 ae3d 7188 913e 325e d7bb c5ab 38be
000000b0: 0d4c 7b3e b975 0a3c 9285 5e3d 9a1d debd
000000c0: 5013 2cbd ffba 30be 60c2 a63b b0fc a43d
000000d0: ade4 ddbd 37f4 783d 8e03 37bc 8edc a03b
000000e0: 105f 3c3e 0749 9f3c a4ba d03d 5c28 ae3e
000000f0: c313 803e 5d72 9bbd 95ad 643d 1a33 583e
00000100: e5a4 cebd 17fb c7bc d592 b4bd cb86 fe3d
00000110: 0e52 3fbe 8260 863d a6af b93e 8283 26bd
00000120: 1478 843e f10a a0be a28a 1c3e 54ca 09be
00000130: 3298 a7bb 015b a03e 3310 453e 1a54 f6bc
00000140: 2a39 9a3e 48a7 1d3e 6dab 57be 4f4e 0e3e
00000150: 6937 733d 43c0 5b3e 14db 8b3c f18c 483d
00000160: c028 03be f354 70bd 8bb4 f3bc 4a7c b73c
00000170: 1a13 91bc 8af0 94bd 9550 133e c9ce 413d
00000180: dd65 0fbe 2ffa 6fbc 004e 923b 46f6 14be
00000190: 6dc9 543d 6cea 403e 745d ddbc 2b02 34bd
000001a0: ce1c 8fbe 20d8 1ebe bd0c d43d c724 b9be
000001b0: 73b7 adbd 6348 923d eb75 debc cd73 f8be
000001c0: 8788 93bd 679c 50bd 94e4 71be 9b82 b238
000001d0: 059b 4b3d b21c 44be dee1 5f3b 8254 143b
000001e0: 1a9d 3dbe ec55 99bc 8acb 403e 454e da3d
000001f0: 72d8 0dbf 40db ae3c 7f7b 10be ef58 833e
00000200: 1499 58bd 2bbf 86bc 2256 283e fdf5 a8be
00000210: 75c6 923d f6a5 37be 1e5a abbc b823 f33e
00000220: 99ef 813e b6c7 e33d 84b3 a0be 030a 81be
00000230: c96a 6b3e d20a a0bd d08d b8bd c49f 0dbe
00000240: e77e bfbd 2f1e f33b 17bd b63e 6122 80bd
00000250: 9d79 7cbe 8b93 b43d 74a9 abbe da14 9d3d
00000260: 0c64 013e 21bd e23d 5db7 c23e 1cb4 cc3e
00000270: eb55 6c3e 03a3 a6bc c13d 0a3d 71be f43c
00000280: 64dd a33d fd79 44be 0ea2 573c 83e1 893d
00000290: 02a5 063e 3102 6cbc 86c6 123e 55dc 953e
000002a0: 2e5a 383e 3521 dbbe bbe3 c1bd 27af 66bd
000002b0: 2432 953d 93b1 463e 314d 92bd 0f18 06be
000002c0: 7990 0dbf 1035 72be 92d5 40be a6c6 61bc
000002d0: 81e7 2c3e 4e9b e7bd 969d e2bd 54d8 f83d
000002e0: d1a2 18be a2a7 873e bc64 33bd 30fe 053e
000002f0: 0450 eabe 30b4 df39 9008 cd3d 010d ce3d
00000300: 3b73 bdbd 52db cd3d eb8f e63d ab71 7b3e
00000310: f833 853e d11f fcbd 59de a53e a0bd 03be
00000320: cefe 30bf 351f a0be 7db7 033f bacd 1dbc
00000330: 86b8 bc3e 1cf0 f4bd a574 c2bd a5a7 8ebe
00000340: deff 05bc 29a5 983d fb31 643d cc4f 81be
00000350: 1607 da3c 2c26 5abe cc31 823e 4434 0d3e
00000360: a6f8 0c3e 8f69 673e 7ea3 90bd 89f1 f4be
00000370: 63d9 b1bd 76bf cbbe 1fcc 92be dd0a e3be
00000380: 7668 a5be 1413 013c 77ad 523c 0e1d 7c3e
00000390: beb0 393c 7dd6 fb3c bacd 0bbf 5bb2 a0be
000003a0: 6034 d2be cd3c aebb 0229 70be 42a5 953c
000003b0: 9e92 d7bb 958d 97be e9dd f5bd 3206 7dbc
000003c0: e3c2 003e 716a 9abe 8070 3e3f fe72 cbbd
000003d0: be00 49bd 5a6a 863e 9746 84bc fc8b 31be
000003e0: 6142 b43c 0eae 293e c73e 373d d650 6f3d
000003f0: 476f 413d dd20 9cbd 4431 30be 290d a2be

fc2.bias f4 [128]
0.106032155 -0.17704827 0.0931999 -0.07297678 0.0029811193 0.08071631 0.07714162 0.07019551
0.043222856 -0.17558314 0.024506655 0.026773738 0.10632125 -0.02294935 0.032149076 -0.12403782
-0.08374892 0.02471955 -0.001042959 0.023132067 -0.121405266 -0.070561334 0.022829657 0.08764214
0.043465525 0.1556048 -0.040421635 0.09070815 0.0112537565 0.007299027 -0.03513847 0.038438622
-0.044049446 0.09371 -0.0076771034 -0.0020323806 0.07826648 -0.026847158 -0.050529886 0.06576979
-0.046619672 0.054922692 0.08081515 -0.013736828 0.11898083 -0.03380356 -0.072375216 -0.11672552
-0.033352092 0.049193308 -0.017071372 0.11057316 -0.00040012682 -0.061708007 -0.12055606 0.022080801
-0.08089452 0.05491965 0.00051153183 -0.030071227 0.037184563 0.09467057 0.02570357 0.042756256
0.10269279 -0.03651408 0.027030075 0.09701119 0.023752417 -0.0040924507 -0.013402577 -0.061539486
-0.039662335 0.046344776 0.06973518 0.18306606 0.10598495 0.11542061 -0.05970518 -0.09605385
-0.075677596 -0.01536764 0.056540057 -0.08218441 -0.0050360067 -0.059602953 0.019189626 -0.05933417
-0.01468603 0.036078043 0.08748993 -0.13141376 0.0019758183 -0.045754377 0.10531362 0.15176967
-0.0027432875 0.026841406 0.028410647 0.04743579 0.05363246 -0.04853889 -0.019512448 0.06258384
0.0012801756 -0.02438183 -0.092670925 -0.01017763 0.14061822 -0.095740914 -0.0031906553 0.10464822
-0.11124755 0.07134867 0.15073077 0.011777791 0.0369291 -0.029060569 0.005327336 0.06050883
-0.030034695 0.050376054 0.010578227 0.06213309 0.058838062 -0.07968892 0.11396219 -0.06566352
00000000: 6327 d93d 244c 35be 97df be3d da74 95bd
00000010: e25e 433b 984e a53d 6dfc 9d3d aac2 8f3d
00000020: 730a 313d 11cc 33be 2ec2 c83c 9954 db3c
00000030: f5be d93d 4600 bcbc c0ae 033d 8a07 febd
00000040: 8e84 abbd a780 ca3c e6b3 88ba 767f bd3c
00000050: 53a3 f8bd 7682 90bd 4305 bb3c b97d b33d
00000060: e808 323d dd56 1f3e 2891 25bd 32c5 b93d
00000070: ad61 383c ad2c ef3b 5bed 0fbd d171 1d3d
00000080: 316d 34bd 07eb bf3d 3690 fbbb b031 05bb
00000090: 2d4a a03d 92ee dbbc 6df8 4ebd 50b2 863d
000000a0: 45f4 3ebd 9ef6 603d 6a82 a53d 6f10 61bc
000000b0: 39ac f33d 9a75 0abd 7539 94bd ca0d efbd
000000c0: 349c 08bd ec7e 493d 43d9 8bbc 2e74 e23d
000000d0: 1dc8 d1b9 89c1 7cbd 18e6 f6bd cce2 b43c
000000e0: 07ac a5bd 6df3 603d 5218 063a ef57 f6bc
000000f0: d74e 183d a5e2 c13d 4b90 d23c 2f21 2f3d
00000100: 9950 d23d ca8f 15bd 2d6e dd3c cead c63d
00000110: 6e94 c23c f719 86bb 7b96 5bbc d410 7cbd
00000120: f974 22bd 05d4 3d3d 51d1 8e3d ab75 3b3e
00000130: a30e d93d a461 ec3d 6b8d 74bd e2b7 c4bd
00000140: dbfc 9abd 8ec8 7bbc 8c96 673d 4d50 a8bd
00000150: 1605 a5bb 3a22 74bd 9033 9d3c 6308 73bd
00000160: ad9d 70bc 92c6 133d ec2d b33d 5491 06be
00000170: bb7c 013b f168 3bbd abae d73d 8269 1b3e
00000180: bac8 33bb 82e2 db3c 72bd e83c 084c 423d
00000190: b6ad 5b3d b7d0 46bd 92d8 9fbc f52b 803d
000001a0: 91cb a73a 67bc c7bc 41ca bdbd 13c0 26bc
000001b0: 39fe 0f3e d013 c4bd 501a 51bb ce51 d63d
000001c0: c1d5 e3bd 401f 923d 2b59 1a3e a3f7 403c
000001d0: f842 173d 6e10 eebc ef90 ae3b 1bd8 773d
000001e0: 520b f6bc 1f57 4e3d 4d50 2d3c 447f 7e3d
000001f0: 2e00 713d f233 a3bd 0265 e93d 987a 86bd

fc3.weight f4 [4, 128]
-0.5753012 0.64083487 -0.11788749 0.5131508 -0.48563746 0.5599538 0.47795433 0.7332796
0.01946487 -0.34994456 0.1881366 0.2502149 -0.25367013 0.089748316 0.037931938 -0.27809218
0.27081338 1.0588889 -0.9036503 -0.5195198 -0.23507626 0.6640325 -0.9169097 0.3039094
0.0037031858 0.8767808 -0.28425804 1.1037422 0.6540863 -0.48869157 -0.9533045 -0.4078034
-0.0006203153 0.88956463 -0.35419306 -0.7410494 0.27598378 -0.3597954 0.03125576 0.44777367
-0.11956354 -0.06627182 0.264237 0.6430191 0.4991489 0.4857113 -1.2271323 0.14662537
-0.15750891 -0.26467085 0.7328326 -0.7497829 -0.11564699 -0.27640396 -0.070951365 -0.40502128
0.46828902 -0.7323083 1.1854609 -0.029178737 -0.12544356 0.96431077 -0.48738086 -0.04267939
-0.11974334 0.487249 0.5138736 0.81203693 -0.5987327 0.00802004 -0.08711762 0.10083357
0.026089942 0.63403183 0.2859357 -0.65738314 0.4234349 -0.6648807 1.488195 -0.85844684
-0.118546546 0.3509617 -0.399687 -0.303491 -0.9720149 -0.27155733 -0.6937272 -0.30189973
-0.35346234 -0.63642174 -0.3736248 0.33338606 -0.54101366 0.31495494 -0.48869962 0.4520242
-1.2603703 -0.087421894 0.29882133 -0.07048566 0.39461553 -1.4412621 0.7807796 -0.17911662
1.3922566 0.28323698 -0.23547436 0.17103218 -0.034961443 -0.74276304 -0.27310285 1.5726204
0.24437861 1.104468 -0.15177578 -0.7026731 -0.111972235 -0.8082793 -0.39573318 0.7125853
-0.11280656 0.02336232 0.114391394 -0.2331287 0.8962249 -0.13599993 0.39749205 -1.0422314
-0.41073343 -0.82652074 -0.24022447 -0.8593887 0.1519797 0.4368016 0.6686186 -0.5555912
0.2935762 -0.2767774 -0.1613328 0.2684755 0.37364724 -0.42391893 -0.037865765 -1.6396044
-0.066872425 -0.25483415 -0.43618524 0.5599453 -0.42038006 -0.637664 0.6697065 0.017716708
0.6108343 0.17501113 -0.07147849 0.027024329 -0.2581287 -0.4099943 -0.65537655 -0.4312796
-0.7867069 -0.25582594 -0.33814794 -0.5650211 1.048729 -0.5416347 -0.26269576 -0.2715461
0.40296233 0.37997982 1.5824273 0.10627774 -0.38072392 0.108544074 -0.13667664 -0.48586974
0.24553534 -0.67030686 -0.065343 -0.012828047 -0.5796929 0.36423743 -0.9338432 -0.2509122
0.30380908 0.05639994 0.4578716 0.012679214 -0.54775745 -0.039539166 1.182881 -0.62997043
-0.15722023 0.14000101 -0.16958894 -0.11374596 0.26527825 -0.5116072 0.66802454 -0.7777092
0.22247316 0.56360424 0.46673357 0.38476494 0.13275844 0.31980926 -0.11477728 -0.89507324
-0.39794326 -0.78899485 0.4818723 -0.8087188 0.14858338 -0.18804252 -0.17415594 -0.015441191
-0.2880406 0.25818408 -0.7840048 -1.1348503 -0.36356223 0.95198226 0.2544851 0.2282618
-0.14166279 -0.38188794 -0.67203057 0.13083836 -0.07878231 0.5257825 -0.0017327853 -0.005805185
0.3742905 0.20664972 -0.031145787 -0.42978308 0.39082927 -0.5710115 0.13723747 -0.26848492
0.029177913 -0.24778314 0.20237061 -0.508089 0.4738208 -0.12315971 0.18351203 0.62299246
-0.12573746 0.10297343 0.049811672 -0.9691155 -0.07003355 0.50897664 0.47677144 1.414239
00000000: f046 13bf c10d 243f ff6e f1bd da5d 033f
00000010: 79a5 f8be 2259 0f3f 6eb6 f43e 36b8 3b3f
00000020: cb74 9f3c ef2b b3be e2a6 403e 2b1c 803e
00000030: 0de1 81be f7cd b73d 855e 1b3d 1962 8ebe
00000040: 0da8 8a3e ac89 873f a055 67bf 40ff 04bf
00000050: d5b7 70be 09fe 293f 98ba 6abf 039a 9b3e
00000060: 26b1 723b b574 603f 458a 91be 6d47 8d3f
00000070: 3372 273f c835 fabe c40b 74bf 9bcb d0be
00000080: a89c 22ba 82ba 633f cb58 b5be 6ab5 3dbf
00000090: bf4d 8d3e 1a37 b8be 0a06 003d 9742 e53e
000000a0: bbdd f4bd 85b9 87bd 124a 873e e69c 243f
000000b0: 7290 ff3e 27af f83e ac12 9dbf f624 163e
000000c0: 044a 21be f082 87be eb9a 3b3f c6f1 3fbf
000000d0: 54d8 ecbd d284 8dbe f34e 91bd f35e cfbe
000000e0: 94c3 ef3e 8f78 3bbf 2fbd 973f 3f08 efbc
000000f0: 4774 00be 12dd 763f fc89 f9be 96d0 2ebd
00000100: ff3b f5bd b378 f93e 388d 033f a7e1 4f3f
00000110: 8c46 19bf 7c66 033c b96a b2bd d581 ce3d
00000120: 93ba d53c e94f 223f 2a66 923e 434a 28bf
00000130: 76cc d83e 9f35 2abf 2c7d be3f 2cc3 5bbf
00000140: 88c8 f2bd 40b1 b33e c6a3 ccbe 2c63 9bbe
00000150: f8d5 78bf 9009 8bbe 1b98 31bf 9a92 9abe
00000160: 04f9 b4be 89ec 22bf c04b bfbe 94b1 aa3e
00000170: df7f 0abf c641 a13e d636 fabe b76f e73e
00000180: d053 a1bf 400a b3bd 1cff 983e c95a 90bd
00000190: 0c0b ca3e 477b b8bf 2ce1 473f 596a 37be
000001a0: 7735 b23f 7004 913e 3120 71be 0f23 2f3e
000001b0: bb33 0fbd b825 3ebf 23d4 8bbe a04b c93f
000001c0: 633e 7a3e 355f 8d3f 1c6b 1bbe 62e2 33bf
000001d0: b351 e5bd 64eb 4ebf 8a9d cabe fd6b 363f
000001e0: 2007 e7bd 5662 bf3c 0946 ea3d 4ab9 6ebe
000001f0: ff6e 653f 9143 0bbe 1484 cb3e d767 85bf
00000200: a74b d2be dd96 53bf 67fd 75be e600 5cbf
00000210: 91a0 1b3e 76a4 df3e 972a 2b3f 3a3b 0ebf
00000220: 9f4f 963e c4b5 8dbe 6d34 25be 9f75 893e
00000230: b14e bf3e e70b d9be 2219 1bbd 8fde d1bf
00000240: 69f4 88bd 9f79 82be ac53 dfbe 9358 0f3f
00000250: 0e3c d7be f33d 23bf e371 2b3f a122 913c
00000260: a35f 1c3f 1e36 333e 5163 92bd 2062 dd3c
00000270: 7229 84be c6ea d1be c2c6 27bf aed0 dcbe
00000280: a065 49bf 9efb 82be ba21 adbe 39a5 10bf
00000290: c03c 863f 92a8 0abf 0f80 86be 1708 8bbe
000002a0: 1451 ce3e b78c c23e fa8c ca3f 25a8 d93d
000002b0: 3fee c2be 5b4c de3d f6f4 0bbe ebc3 f8be
000002c0: 9e6d 7b3e 3b99 2bbf 8dd2 85bd bb2c 52bc
000002d0: c166 14bf 547d ba3e 5910 6fbf 9077 80be
000002e0: dd8c 9b3e a003 673d 256e ea3e 7abc 4f3c
000002f0: d539 0cbf d2f3 21bd a568 973f be45 21bf
00000300: 57fe 20be 6d5c 0f3e b9a8 2dbe a4f3 e8bd
00000310: 8dd2 873e b1f8 02bf a803 2b3f f317 47bf
00000320: 01d0 633e 5e48 103f b4f7 ee3e e9ff c43e
00000330: d4f1 073e 0abe a33e 5a10 ebbd 8523 65bf
00000340: 38bf cbbe 91fb 49bf f7b7 f63e 3208 4fbf
00000350: 3e26 183e 388e 40be ef55 32be 0dfd 7cbc
00000360: 0f7a 93be b430 843e 8ab4 48bf c642 91bf
00000370: d424 babe 1cb5 733f df4b 823e 76bd 693e
00000380: 0d10 11be d186 c3be 320a 2cbf 7efa 053e
00000390: 9f58 a1bd af99 063f a01e e3ba 6c39 bebb
000003a0: 01a3 bf3e fc9b 533e 7325 ffbc 870c dcbe
000003b0: c61a c83e cf2d 12bf fb87 0c3e db76 89be
000003c0: 8506 ef3c ddba 7dbe 3e3a 4f3e 1f12 02bf
000003d0: a498 f23e 283b fcbd 94ea 3b3e 6f7c 1f3f
000003e0: 52c1 00be bce3 d23d 5307 4c3d f417 78bf
000003f0: c06d 8fbd 4b4c 023f 631b f43e c905 b53f

fc3.bias f4 [4]
-0.09365196 0.09541603 0.06156421 -0.049969625
00000000: 99cc bfbd 7b69 c33d c12a 7c3d f3ac 4cbd
