critic_best_model_128_128.pth (torch_old, 87062 bytes, 5 tensors)

fc1.weight f4 [128, 33]
00000000: 3292 963c 049e 4a3f 45c7 9cbd 5d86 d1bf
00000010: dfe0 693f 003a 89be aa11 513f e664 143d
00000020: 3ba2 e5bd 5cd5 1f3d 01c7 34bd 52a9 883d
00000030: 06fc 71bd 7dee 253e 8e59 c5be 3b9d 16be
00000040: c0fd 9ebf 33c5 1b3e 271c 043f d279 1c3e
00000050: 90e2 c9bc 1459 1a3d b649 4b3e 9e54 5a3e
00000060: 179a 12be ae1c 58be ce9f 45bd 7ea4 223e
00000070: 9150 c13d 49ac 9b3d 4cf5 5fbe 0045 e5bc
00000080: e4b1 f8be 5617 14bd e72f fc3e 0e87 31be
00000090: 0565 e9be 58c2 dfbc d830 03be 5321 593e
000000a0: 3f0c 3bbe 519f db3d c310 243e c8db f73c
000000b0: 780a 923d 3c50 96bb 81bf dfbb 6ac5 db3d
000000c0: d827 93bd 3828 9c3f 92ac f53e 17f8 493f
000000d0: 07b1 98be ca36 6abd abf6 543e da6e ac3e
000000e0: 71e4 9d3e 2503 2d3e 0608 fdbc 4a15 e0bd
000000f0: 5c99 3a3f c3d8 f8bd d49b 87bc 8f42 2bbf
00000100: 34ba b0bd 37ce 373f 3aae 1cbe d5d1 ba3e
00000110: b73d 9bbd 9a22 b8be 6a3f cabd 8e30 3dbe
00000120: db3c 723e c628 6e3d 7d6d c3bc bac1 13be
00000130: 117f 8bbe 7583 733d 6fda 1f3e 21da 8bbd
00000140: 4e9a 81bd 3005 2ebe ee55 1bbf 76e8 2bbf
00000150: 0129 3abf 4df1 ab3e f8fd 5e3e 7b6e 583e
00000160: 9d4c e23d 77d4 0d3c 3f28 dabd 8733 90be
00000170: 5308 993e 4987 323f d385 30bd 56c1 acbd
00000180: 9ff5 34bf c2e6 a9bd 4188 17be 545d 05be
00000190: c6b6 2ebd a574 a1be fbdf adbd 74ae 27be
000001a0: 064b a73f 21cf a8be a7e1 d43d 3a26 babd
000001b0: 70fa 483e b44a 41bd e1e1 e8bc 2026 063d
000001c0: febf 1c3e a1da 17be 7939 9b3e 60dc 46bf
000001d0: 6526 0fbe e2d8 c5be 2c2d cfbe 203b d13c
000001e0: 70c2 7cbd ba50 d6bb 3118 fc3d 91cd 85bd
000001f0: 584f b73d 0d36 83bd fc60 ba3e 4292 12be
00000200: 2034 373b db85 cabe b04b b33b 5f78 aa3f
00000210: 5156 babe 74d7 003f 55f5 923d b9a8 34be
00000220: 8af9 d33e c83a 43be d5fa 503f 8e8c c33d
00000230: 8bc1 31bd 8e56 ab3e 33d1 113d 0b6f 423e
00000240: d5b8 903d 8d36 0e3f 4091 3c3e 0396 92be
00000250: 091d 433d 5546 9a3d 71cd a13d c017 3a3e
00000260: c739 30bc 2189 f13d 3917 37bd 4515 323e
00000270: ceba 7839 33ef 81bb bb75 6fbe 1904 3b3e
00000280: 6c29 be3e cb49 31bd 7355 28be 0d4f b03d
00000290: e536 8dbf 36e0 8b3d 80c5 343f 4a66 8d3e
000002a0: 74c8 75be cefe f7be c7f7 f33e d804 92bb
000002b0: 243c b6bc 382b 8c3e ecdd d2be 68df 893e
000002c0: 2deb 913e 64bc 223e 1c07 13be ef0d f23d
000002d0: 83e6 003d ef2a 863e 1233 9f3d aa8e ee3e
000002e0: cbec f73d be8f 8d3d 451d 8c3d 0267 41bc
000002f0: a4eb 383e 8a6d a63e c67e 39be 2d6d ea3d
00000300: 0735 043f 34dc 2abe ec1a fe3c e4b7 17bf
00000310: aadf 57bd 757f 0cbf c6dc b63d 2156 bebd
00000320: 491b f2be aa56 0d3f 29fc 1a3e 5141 bfbe
00000330: 0b87 8cbe cd54 b23d bde6 8fbb f1a7 713d
00000340: 8561 243c 45a3 0c3c aa24 84bc f975 203d
00000350: 2ee3 993d ca5e 303e efc8 213e e4a8 783c
00000360: ee43 35be 2138 b9bd b9ed 35bc d91a 14bd
00000370: 6a4f 76bc 7316 55bc f336 8d3c e020 083c
00000380: 3ee8 a2bd 6be2 afbe 712b 233e c34a ad3d
00000390: b9bb 8e3e 6ac5 82bd b3de 13bf 4626 eabe
000003a0: 955a 2c3f 08a4 56be 44ad a0be 155d 22bf
000003b0: d981 69bf 4d35 bd3c dabd 30be 30c3 81be
000003c0: 4e18 f3be 1a72 543d b05d 553e c2ed 41bc
000003d0: 13e1 37be e1bf 51be 7e4a 523e bf20 743f
000003e0: 6fa5 0b3e c2bf 213f ea30 af3e 750f ed3d
000003f0: d6da 24be 5258 2c3d d768 59be a2b0 b43c
0.018380258 0.7914736 -0.07655195 -1.636913 0.9135875 -0.26802063 0.8166758 0.036229037
-0.11212584 0.039021835 -0.044135097 0.0667292 -0.05907824 0.16204257 -0.38544887 -0.14708416
-1.2421188 0.15211944 0.5160546 0.15280846 -0.024644166 0.037682608 0.19852337 0.21321341
-0.14316593 -0.2110469 -0.048248105 0.15883061 0.09439195 0.0760122 -0.21870917 -0.027987003
-0.4857322 -0.036155067 0.49255297 -0.17336676 -0.45584884 -0.02731435 -0.12811601 0.21204118
-0.1826639 0.107237466 0.16022019 0.030256167 0.07130903 -0.0045872014 -0.006828249 0.10731013
-0.07185334 1.2199774 0.47983223 0.7889418 -0.2982256 -0.057181157 0.20797221 0.33678323
0.3083835 0.16895731 -0.030887615 -0.109415606 0.7289026 -0.12150719 -0.016553797 -0.66898435
-0.086292654 0.71799034 -0.15300837 0.36488214 -0.075801305 -0.359639 -0.098753765 -0.18475553
0.23656027 0.058144353 -0.023855919 -0.1442937 -0.2724538 0.05945154 0.1561067 -0.06828714
-0.063282594 -0.16994166 -0.60677993 -0.6715158 -0.72718817 0.33582535 0.21776569 0.21135895
0.11049769 0.008656613 -0.106522076 -0.28164312 0.29889163 0.6973768 -0.043096375 -0.084353134
-0.7068729 -0.08295967 -0.1479807 -0.13023883 -0.042654775 -0.31534305 -0.084899865 -0.16375142
1.306977 -0.32970527 0.10394602 -0.090893224 0.19626784 -0.047190383 -0.02842802 0.032751203
0.15307614 -0.14829494 0.30317286 -0.77680016 -0.1397949 -0.3864203 -0.4046415 0.025540888
-0.061708868 -0.006540385 0.12309302 -0.06533349 0.089506805 -0.06406794 0.36402118 -0.14313605
0.0027954653 -0.3955525 0.005471669 1.3317984 -0.3639398 0.50328755 0.071756996 -0.17642488
0.4140132 -0.19065392 0.8163274 0.09548293 -0.043397468 0.33464473 0.0355999 0.18987672
0.07066504 0.5555199 0.18414783 -0.28630075 0.047635112 0.07532946 0.07900513 0.18173122
-0.010755963 0.117937334 -0.04469988 0.17390926 0.00023720713 -0.0039652823 -0.23384754 0.18263282
0.37140977 -0.043283265 -0.16438846 0.08608828 -1.1032377 0.06829874 0.7061386 0.27617103
-0.24002248 -0.48436588 0.47649977 -0.004456144 -0.022245474 0.27376723 -0.41184938 0.26928258
0.28499737 0.15892178 -0.14358181 0.11819064 0.031469833 0.2620463 0.07773413 0.4659322
0.121057115 0.06912182 0.0684152 -0.011804344 0.1805864 0.32505447 -0.18114766 0.11446605
0.51643413 -0.16685563 0.031018697 -0.5926497 -0.052703537 -0.54881984 0.08928828 -0.092937715
-0.47286442 0.55210364 0.15135254 -0.3735452 -0.2744678 0.08707581 -0.00439152 0.058998052
0.010033016 0.008583848 -0.016130764 0.039175007 0.07514034 0.17223659 0.15799306 0.015176985
-0.17701694 -0.09043909 -0.011104041 -0.036158416 -0.015033582 -0.013005841 0.017238116 0.008308619
-0.07954453 -0.3435243 0.1593454 0.08461525 0.27877596 -0.0638531 -0.5776169 -0.45732325
0.6732572 -0.2096101 -0.3138219 -0.6342328 -0.91213757 0.023096705 -0.17259923 -0.2534423
-0.4747948 0.05186663 0.2083652 -0.011836471 -0.17956953 -0.20483352 0.20536229 0.95362467
0.13637327 0.63183224 0.34217006 0.11575214 -0.16099104 0.042076416 -0.212314 0.022056881

fc1.bias f4 [128]
00000000: 17af 88be b017 44bf f582 12bf e115 c6be
00000010: 08cd 53be e634 09bf eb8a 6d3e d0b6 13bf
00000020: 2b44 b1be 9266 c0be 90fd b3be 8f04 c5be
00000030: 1f00 5bbe 80b2 c3be 8a95 fabd c702 0fbf
00000040: f8a4 f2be dc39 efbe cebf 52bf be49 d6be
00000050: 7fda 7fbe 5596 77be a18f 07bf f200 a8be
00000060: c563 89be bd06 fbbe f2a2 12bf 1549 c6be
00000070: 4196 a0be 20fb 3cbf f242 a2bd 3e02 25bf
00000080: e8b5 e73d 811e b9be 7843 7ebd 1d8b f9be
00000090: 4081 69be b03c 4bbe ded3 0abf 1533 7f3e
000000a0: e5f3 19bf cb64 4cbe ea27 4e3d 951e b5be
000000b0: 67ac f4be da18 e0be f22d a0be 4951 ccbe
000000c0: 3175 d3be 0377 4e3e 3244 ebbe 070d 87be
000000d0: 4da2 023f 47ee debe 17ec 15bf 0140 99be
000000e0: 009f 7cbe 1deb 24bf 8813 acbe 87ae 7ebe
000000f0: e55f e7be acea 22bf fd7e 1bbf ed20 43be
00000100: 533f 6ebe e167 d2bd 7d87 8ebe 3666 a73e
00000110: 6999 68be cea3 23be 5d52 febd 1487 adbe
00000120: efce 2bbf d4e2 913c 374b 3dbf a24e edbe
00000130: 52f3 b3be 5471 2bbf 8088 f1be af02 fb3d
00000140: a7d7 22bf 70b6 24bf db31 00bf a572 e3be
00000150: 7f15 a8be bab5 ca3d f052 e2be af57 62bf
00000160: 136e bbbe 754a 1dbf ec1d adbd c7cb cbbd
00000170: 9e61 42bf 67b1 1cbf 9141 c0be 2dbf 0bbf
00000180: d30b 20bf 4490 86be 09bb 14bf 2a21 6fbe
00000190: a2d4 e4be 7a48 cbbe e93f cdbe 86a5 a7be
000001a0: a5c1 fabe d07e 033c aec7 42bf fd29 f2be
000001b0: ad9a cfbd 8f0d 51bf 92df fdbe da05 eebe
000001c0: fc98 febe 602b 3fbf c294 10bf 2ca9 0ebf
000001d0: 7134 65bd 445c f83d 123e bcbe 3a52 053f
000001e0: 92d4 d5be 0835 3cbe 9151 17be 0c22 03bf
000001f0: 8ef5 41bf 8430 4c3e f110 8cbe f8c3 edbe
-0.26696083 -0.76598644 -0.57231075 -0.38688567 -0.20683682 -0.5359634 0.23197524 -0.57700825
-0.3462232 -0.37578255 -0.3515439 -0.3848004 -0.21386765 -0.38222122 -0.122355536 -0.5586361
-0.47391486 -0.4672383 -0.8232392 -0.41853136 -0.24985693 -0.24178441 -0.52953535 -0.3281322
-0.2683393 -0.49028578 -0.57279885 -0.38727632 -0.31364635 -0.73820686 -0.07922925 -0.64456546
0.11313993 -0.36156085 -0.062076062 -0.48738948 -0.22803211 -0.19847369 -0.54229534 0.2492183
-0.6013778 -0.19960324 0.050331034 -0.35374895 -0.47787783 -0.4376896 -0.31285053 -0.39905766
-0.41300347 0.20162587 -0.45950466 -0.26377127 0.510289 -0.43541166 -0.5856337 -0.29931644
-0.24670029 -0.64421254 -0.3360865 -0.24871264 -0.4519035 -0.6363933 -0.60740644 -0.19055529
-0.23266344 -0.102737196 -0.27837744 0.32695168 -0.22714771 -0.15980455 -0.12418053 -0.3389212
-0.6711263 0.017808355 -0.73942894 -0.46349055 -0.35146576 -0.669698 -0.47174454 0.12256371
-0.6361031 -0.6434088 -0.50076073 -0.44423404 -0.328289 0.09897943 -0.442039 -0.88415045
-0.36607417 -0.6144174 -0.08452973 -0.09950977 -0.759302 -0.61208194 -0.37550023 -0.54588586
-0.6251804 -0.2628194 -0.58097893 -0.23352495 -0.44693476 -0.39703733 -0.40087822 -0.32743472
-0.48975864 0.00802584 -0.7608594 -0.4729766 -0.10136924 -0.81661314 -0.49584633 -0.4648884
-0.49726093 -0.7467556 -0.56476986 -0.55726886 -0.055958215 0.12126973 -0.36766106 0.5207859
-0.4176374 -0.18379605 -0.14777209 -0.51223826 -0.7576531 0.19940382 -0.27356675 -0.46438575

fc2.weight f4 [128, 132]
00000000: 230a 013e 9ee0 55be 8939 2dbc 843f 9ebd
00000010: 7a6b 083d e53d 02be d8b6 3ebe b13a 2abe
00000020: f159 0bbd c149 53bd ac3a 583d bf9f d0bd
00000030: 2fd3 103d 8726 17be fb63 a73d 72b0 0bbe
00000040: 92f5 763d 922c 82be efce 08be c295 773b
00000050: 1feb 01be 6771 0dbd b158 41bd 9add 34be
00000060: d0a2 7dbe d3f0 593b 2571 59be b18a 34be
00000070: 6e18 153d bdc6 87be 79f2 14bd ab1c 92bb
00000080: b8f9 c6bd a82b ebbd 17a1 10bd e8a3 1cbd
00000090: e1ca adbc d1a5 da3d f606 12be a408 b6bd
000000a0: ad7a b3bc e246 80be 7826 59bd efad e0bc
000000b0: c939 babc 3b43 643d 37ee debc 06cb b1bd
000000c0: 413b bc3d 9981 a8bd 58de 1dbd 6b6b 5fbe
000000d0: ae56 90bd 71b1 35be 53b7 cc3b f207 513c
000000e0: 0e83 98bd bfc2 97bc 90a3 cc3c 7b2b 943d
000000f0: 6d22 5dbe 9a9b 933c d466 3d3d 21b1 b13d
00000100: 1dbe c5bd 5c3c 183d 0aa3 f7bd 6c9a 7bbd
00000110: 03bb d4bc 0c63 69be ef68 8bbe e651 38be
00000120: 6752 78be 8172 043d 58bd 91be b8eb b1be
00000130: 5321 77be 130f 113d 20a6 85bd d6a2 43be
00000140: c1a7 c2bb 57b0 2cbd 2a48 67be 8617 98bc
00000150: 55a3 05bd f82b 6a3d db51 abbd b724 91bc
00000160: 258a 81be 83c5 39bd fec3 a23c defd 193d
00000170: 74f8 8e3d 1177 0fbd 941d 57be 8f5b 41bd
00000180: 87d4 70be 8a12 18be 6f37 25bd d99a c0bd
00000190: 8b64 fcbd 2586 113e 6da1 83be 8f56 57be
000001a0: 449a 90bd 1f9d 53be 9efb 4e3b df55 eabc
000001b0: 752e 11be c1b9 c7bd 5c82 7abe dbe7 fb3c
000001c0: de15 1dbe 5fb1 5dbd 24c9 96bd 7caf 23be
000001d0: 386a 77bc e126 04be a582 09be fb0b 9fbc
000001e0: 36ba 01bd c377 96bd 447e 3ebe 2b3d 2cbe
000001f0: ff4e 3ebd 0d7f 85bd f2a8 b63d 9a4c 77bd
00000200: d6f7 58bd e945 ee3d 391b a3bc 2435 793d
00000210: df89 d4bc 3c0e 143e c257 d1be 842f 1bbe
00000220: 8f43 c73e 545b 983e 848c 2dbe b71c aabe
00000230: a771 b53e a77d 3abe 90ba e7be 0e34 2fbf
00000240: 1d35 9bbe 30cf ccbe 27bd dfbd f7d1 eabe
00000250: c899 bcbd ba03 b4be 98e7 1abe f4f0 9abe
00000260: 8190 72bf 5276 b33d 348c c7bd 21e2 2a3e
00000270: c4ec 63be 8241 253f 500c 183e d24e 8abe
00000280: e973 ab3e 2907 943e 38c5 053d e872 18bf
00000290: 19d8 f1bd d8c1 08be 1fb5 a8be f8d4 033d
000002a0: 5a30 93be 447b b9be 049c 80be d6b9 efbf
000002b0: d2e9 4bbc 68bd 07bf df68 eabc 47ed 3a3e
000002c0: 2b46 8abe 2299 663e 21df c1be 6d45 63bf
000002d0: d7e9 843d 4022 d53d 0165 893d 5785 cf3d
000002e0: e0b6 51be c147 77be 3736 28be a3b9 bd3e
000002f0: 7a5a cbbe 9642 72be 8cc9 4fbe 5adc b0bd
00000300: 7853 8abe 3aa1 75be 4035 17bd 6efe 523e
00000310: 5ae0 dcbe 95d5 e8bd f263 0d3e ae23 483e
00000320: 085d 233d 3568 d8be 8a1f 3ebf dbda c2bc
00000330: 24c2 283d 85ee 99bf 2c7c d4bc f627 173f
00000340: 69c8 90be 53b4 3ebf 6434 8bbe 796c 68be
00000350: cb19 1cbf 9e4c 92be bb24 c5be 4fe0 6abe
00000360: e70c 8fbe a6fd 17bf 7d0f 1fbf 4ec2 b53e
00000370: 549b 4bbf 622f 8fbe fe3a ebbe cd3b 9e3e
00000380: 2242 35bf b9bc 6bbd 8570 c9be 0ced 933e
00000390: d949 f43c da3f 73be e027 99bd c447 083e
000003a0: e075 ae3d 5461 a63d eb9f d03e 34ee ba3e
000003b0: f909 27bf ef72 1dbe 400f 8a3e 85b4 3cbf
000003c0: 9bb3 00bd 8e6f ffbe 8bb8 283c f427 d53d
000003d0: 7084 343f bbae b8be 75b4 d6be 0481 433e
000003e0: b591 a1bd edc0 dcbe 0a47 153e e1ed febc
000003f0: e823 143f 49f6 17bf d7cc 62bf 4a0b dcbe
0.12601523 -0.20886466 -0.0105727995 -0.077269584 0.033305623 -0.12718923 -0.18624437 -0.16623951
-0.03402132 -0.05158401 0.05279033 -0.10186719 0.03535765 -0.14760791 0.08173367 -0.13641527
0.060292788 -0.2542463 -0.13360189 0.0037778472 -0.12687348 -0.034531977 -0.047203723 -0.1766266
-0.2476914 0.0033255115 -0.21234567 -0.17631032 0.03640025 -0.26518813 -0.036364052 -0.004458984
-0.09715599 -0.11482936 -0.035309877 -0.03824225 -0.021214904 0.10676158 -0.14260468 -0.08888367
-0.021909082 -0.2505408 -0.053015202 -0.027426688 -0.022732632 0.05572818 -0.027213199 -0.08681302
0.09190989 -0.08227844 -0.03854212 -0.2181832 -0.07047783 -0.1774347 0.00624744 0.012758242
-0.07446872 -0.01852548 0.024980336 0.07234856 -0.21595164 0.018018533 0.046240643 0.08676363
-0.09655402 0.03716694 -0.12091644 -0.061426565 -0.02596808 -0.2279169 -0.27228495 -0.17999992
-0.24250184 0.032335762 -0.2846477 -0.34750152 -0.24133806 0.035414767 -0.065258265 -0.19105086
-0.005940408 -0.04216036 -0.22586122 -0.018565904 -0.03262647 0.057170838 -0.08365222 -0.017717702
-0.25300708 -0.045354377 0.019868847 0.037595622 0.069809824 -0.03502566 -0.21007377 -0.047206458
-0.23518573 -0.14850822 -0.04033607 -0.09404535 -0.123238645 0.14211328 -0.25709096 -0.21029113
-0.07060674 -0.20665406 0.003158308 -0.0286054 -0.14177878 -0.097522266 -0.2446379 0.030750206
-0.15340373 -0.054124232 -0.07362583 -0.1598491 -0.015101008 -0.12905456 -0.13428743 -0.019414892
-0.031671725 -0.073470615 -0.18602854 -0.16820209 -0.046462055 -0.06518374 0.089189425 -0.060375787
-0.05297073 0.11634428 -0.019910442 0.060841694 -0.025944648 0.14458555 -0.40887266 -0.15154845
0.3891873 0.29757178 -0.16948134 -0.33225033 0.35438272 -0.18211995 -0.45259523 -0.68438804
-0.3031396 -0.40001822 -0.1092475 -0.45863315 -0.09209019 -0.35159093 -0.15127409 -0.30261958
-0.94751745 0.08762802 -0.097435385 0.16687824 -0.22258288 0.6455308 0.14848447 -0.2701326
0.3348687 0.28911713 0.032658786 -0.59550333 -0.118087955 -0.13355196 -0.32950684 0.032185525
-0.28747827 -0.36226857 -0.2511903 -1.8728588 -0.012445884 -0.53023386 -0.02861446 0.18254577
-0.2700666 0.22519353 -0.37865546 -0.8877781 0.06489914 0.10406923 0.06708718 0.101328544
-0.20479918 -0.24148466 -0.16426931 0.37055692 -0.39717466 -0.23658213 -0.20291728 -0.08635779
-0.27016807 -0.23987284 -0.036916018 0.2060487 -0.43139917 -0.113688625 0.13807657 0.1954486
0.039883643 -0.42267004 -0.74266875 -0.023785999 0.041200772 -1.2025915 -0.025938116 0.5904535
-0.282779 -0.744939 -0.27188408 -0.22697629 -0.60976857 -0.2857408 -0.38504586 -0.2293713
-0.2793953 -0.5937141 -0.6213301 0.35499805 -0.79533887 -0.27965838 -0.45943445 0.30905
-0.70804036 -0.057553027 -0.39343658 0.2889179 0.02982037 -0.23754826 -0.07478309 0.13308626
0.085185766 0.081240326 0.40747008 0.3650986 -0.6524959 -0.15375875 0.2696476 -0.7371295
-0.031421285 -0.49889797 0.010297905 0.10408011 0.70514584 -0.3607081 -0.41934553 0.19092184
-0.078891195 -0.4311594 0.1457788 -0.031119289 0.5786729 -0.59360176 -0.8859381 -0.42977363

fc2.bias f4 [128]
00000000: 8633 b63b 58bc 98be 18ad 21bf 9890 4cbf
00000010: 87e7 2dbc 9b64 9bbd 0e10 ccbe 9ad7 7e3f
00000020: 2a63 563f 4ac6 cdbd 177d cdbd a183 4c3f
00000030: 7825 0f3f 7da2 03be cf4b 51be b170 24be
00000040: 40a9 15bd 79b1 883f bc81 f7be 0813 cc3e
00000050: 2439 943f 6ce9 bfbe 5c1a 893f aff9 2bbf
00000060: d750 b93f a9dc 123f 91cc 833f 712c c53e
00000070: 32f7 b2be faff e1be 68e2 993e 61c2 1bbf
00000080: 90d2 d4be f194 1e3f 6185 4d3f 6141 7d3f
00000090: 7567 a93e 2343 093f 3766 30be 6e9f 20bf
000000a0: f5bc b93e 00b3 c33e 49ae 28be ce74 c43e
000000b0: 9d54 aabd 740a 81be 3094 14be 0e6f 583d
000000c0: 7fc9 793f 9280 ed3e 15b2 1a3e 55c6 723e
000000d0: fc25 353e 4fcc ccbd ea31 a5be 2a3e 30bf
000000e0: b084 b03e cbf4 563d fb11 c4be 7fea 943f
000000f0: 0586 06bf c571 89be 881e aa3f c29b e2be
00000100: ee3a d8bd 01a0 713e f972 41bf 9cfd 40bf
00000110: 6388 203f 566c 5bbe 785d 10be 404e 4d3f
00000120: 6ca3 1cbf 757f e2bd 6947 f13e c74c 053f
00000130: 157c dbbd c904 acbe 82f5 233e 9125 cdbd
00000140: a209 61bd d5d2 213f 6db1 3abf 1984 c8be
00000150: f7e3 1c3e 0bf9 ec3e f789 933e 4f84 d33f
00000160: 538a 98be b71e 0abf 5ce8 933f 3da2 94bc
00000170: 386b 26be bf3a 113f c664 2b3f 4bbb 88bd
00000180: 185b 633e 34ab 283e 64c6 393f 9169 ccbd
00000190: 105a 0bbe a594 543f 34cf 13bf 9d93 32bd
000001a0: 509b bf3f ed06 31be c714 6cbd 5018 fc3b
000001b0: 9459 c73f d61f d13d 21ef 443e 8e3c 253f
000001c0: 6f25 6a3e 79bd 8a3f 4d2a 11bf 7763 7abe
000001d0: e531 a03f 505d 8bbd 13f3 88bd 4e75 cebd
000001e0: c2c6 1d3f 9608 3a3f 83d9 a0bd 97bf 133f
000001f0: f4c1 873d f6a6 353f e02b c0bd 985c 093f
0.0055603413 -0.29831195 -0.63154745 -0.7990813 -0.010614282 -0.07587548 -0.39856 0.9954773
0.8374506 -0.10047586 -0.100336246 0.7988835 0.5591655 -0.12854953 -0.20439075 -0.16058613
-0.036538363 1.067916 -0.48341167 0.3985827 1.1579938 -0.37482774 1.0711169 -0.6717786
1.4477795 0.5736795 1.0296804 0.3851047 -0.3495422 -0.44140607 0.30055547 -0.60843474
-0.41566896 0.61946017 0.80281645 0.98927885 0.33086744 0.5361807 -0.17226492 -0.6274327
0.36276975 0.38222504 -0.16472735 0.38370365 -0.0831692 -0.25203288 -0.14509654 0.052840285
0.97573084 0.46387154 0.15106995 0.2370847 0.17690271 -0.09999906 -0.32264644 -0.68844855
0.34476233 0.052479547 -0.38294968 1.1634063 -0.5254825 -0.26844612 1.3290567 -0.4425946
-0.10558115 0.23596193 -0.7556606 -0.7538698 0.6270811 -0.21428046 -0.14098155 0.80197525
-0.6118686 -0.11059467 0.47124794 0.5207028 -0.10717026 -0.335974 0.16011623 -0.10016931
-0.054940827 0.6321233 -0.7292698 -0.39163283 0.15321337 0.46283755 0.28816196 1.6524752
-0.29793033 -0.5395312 1.1555285 -0.018143767 -0.16251838 0.56730264 0.66950643 -0.06676348
0.22202718 0.16471559 0.72568345 -0.09981073 -0.13608575 0.83039314 -0.5773804 -0.043597806
1.4969273 -0.17287798 -0.057637002 0.007693328 1.5574212 0.1021115 0.19231845 0.64545524
0.22865842 1.0839072 -0.5670517 -0.24452005 1.2515227 -0.06804907 -0.06686988 -0.10080968
0.61631405 0.7266935 -0.07853987 0.5771422 0.066287905 0.7095789 -0.093833685 0.5365691

fc3.weight f4 [1, 128]
00000000: 37ef e83c 41d6 f5bd 6e97 3abd 8c7f 9cbd
00000010: c177 babd e852 ab3d 5f1f 90bd 00d9 1d3d
00000020: f427 303d bbf5 e3bd e597 113e 5d08 6b3c
00000030: 57be 2e3d 7045 643b bad8 7fbd f365 74be
00000040: 3e3a 1bbc ecb9 823d 4ecd f4bd ba76 a13d
00000050: 9e8a b33d e0e0 aebd e25a a13d 97b6 a2bd
00000060: e715 1a3e bb08 a93c 67ca 3f3d 7d68 933c
00000070: 16c1 f4bc 58ea d5bd 4bc8 0a3d ea1b 26bd
00000080: 5fa1 16be 2dab 7d3d 5384 063d c91b 833d
00000090: 241d ef3c 0641 983c c41d e7bd 664c 5bbd
000000a0: 5b7b 9d3d 875d aa3d 7647 14be a9c7 9e3d
000000b0: f9d1 5f3d bbbb 03be c96e 3cbd b6df be3d
000000c0: 814a e83c c4c7 123d a7f9 7a3d 0efe 593d
000000d0: 3a67 bfbc c3f7 433c 79f9 d2bd 161e 0fbd
000000e0: a703 0b3d 7751 aabd c74c e8bd aa12 c73d
000000f0: c267 eebc a081 21bb ffd1 533d 7212 fbbd
00000100: e2f9 0cba d9ca fb3c c2b2 cbbc dc6a 2bbd
00000110: a555 cb3c ac1f 7bbe 5031 b9bd 78ef 043e
00000120: becc 9dbe 4ffb 46bc 858b 183d 4b1c 933c
00000130: bca9 b33b fc01 28be be01 513d 4bfa 9a3b
00000140: ddfe 36be 2d93 843d 2419 563b 3134 37be
00000150: 1660 abbc 4c15 763d 0aa5 223d a0f8 023e
00000160: 5469 53bd 3410 f9bd 048d cf3c 6f00 0b39
00000170: c3e2 71be 92d1 9e3c 6521 a43c e13a 5c3c
00000180: f808 613d 19ab ad3d 3835 443d 1fd3 1eba
00000190: e59a afbc 4840 183d 49fb 14be 08cb 1c3c
000001a0: 1e12 4a3d 3b14 41bd 3e8d aabc 2701 583d
000001b0: 3bd4 443e 45a6 3f3d 0d8b be3c 8167 0f3d
000001c0: 0c28 823d 8332 8b3d a3e3 a8be 4d59 ecbd
000001d0: 1063 653d 885d fe3b aa15 ba3c faf3 adbe
000001e0: 3ea6 503c 7d18 af3d 2e27 34be 26b8 e33c
000001f0: 6b80 81be bb17 5d3d aeb2 8fbc f4d0 313d
0.028434379 -0.12003756 -0.04555457 -0.07641515 -0.091048725 0.083654225 -0.070372336 0.038537025
0.043006852 -0.11130854 0.142181 0.014345256 0.04266199 0.0034831427 -0.062462546 -0.23867016
-0.009474335 0.06383118 -0.11953221 0.078839734 0.087666735 -0.08538985 0.07878663 -0.079449825
0.15047418 0.020634046 0.046823885 0.01799416 -0.029877227 -0.10445088 0.03388242 -0.040553965
-0.14709996 0.061930824 0.032841038 0.06401784 0.0291887 0.018585693 -0.11284974 -0.053539656
0.07689544 0.0831862 -0.14480385 0.07752926 0.054643605 -0.12864582 -0.04600409 0.09320013
0.028355839 0.035835043 0.061273243 0.0532208 -0.023364652 0.0119609265 -0.103014894 -0.0349408
0.03393903 -0.083163194 -0.11342769 0.09720357 -0.02910221 -0.0024643913 0.05171394 -0.122593775
-0.00053778116 0.030736374 -0.024865512 -0.041849956 0.024821112 -0.245238 -0.09042609 0.12981975
-0.30820268 -0.012144878 0.03724243 0.017957827 0.0054828804 -0.16407007 0.051027052 0.0047295443
-0.1787066 0.06473384 0.0032668794 -0.17891003 -0.02091984 0.060078904 0.039708175 0.12790155
-0.05161412 -0.121612936 0.025335796 0.00013256235 -0.23621659 0.01938704 0.020035455 0.013441772
0.054940194 0.084799 0.047902316 -0.0006058681 -0.021436164 0.03717068 -0.14548983 0.009569891
0.049333684 -0.047138434 -0.020819303 0.052735474 0.19221584 0.046789426 0.023259664 0.03501082
0.063552946 0.06796744 -0.32986173 -0.1154047 0.056002676 0.0077626146 0.022715408 -0.33975202
0.012734948 0.08549593 -0.17593071 0.02779777 -0.25293288 0.05397771 -0.017541256 0.043412164
